models/clf_lstm_jit6.pth (torch, 447432 bytes, 17 tensors)

weight f4 [320, 20]
000000 4b 34 87 3d cc 98 12 be 65 5b 04 3e 9c 91 97 bc
       0.06601771 -0.143161 0.12925489 -0.01850205
000010 da b4 4b 3e 6e 53 53 3e ac 1c e2 3d 01 af 11 bc
       0.19893208 0.20637295 0.11040625 -0.008891822
000020 6e 81 34 be d4 fc c8 bd db 09 0b be 6d 8d b4 3c
       -0.17627499 -0.09813848 -0.13577978 0.022040093
000030 04 09 70 bc b5 54 95 bd d8 7c 63 bd f9 89 b6 3c
       -0.014650587 -0.07291547 -0.055538982 0.022282587
000040 3d e3 31 3e 8f 88 4b bd 9f ce 2e 3e d0 a1 3b 3e
       0.17371841 -0.04969078 0.17071007 0.18323445
000050 0d 3d 09 ba 63 3e ac 3d 0f aa df bc c2 ff cd 3c
       -0.00052352325 0.08410337 -0.02730277 0.025146369
000060 69 e7 eb 3d a7 4c 99 3d ad f6 6a bc 6d 42 87 3d
       0.11518747 0.074853234 -0.014341039 0.066044666
000070 d6 15 63 3e b7 3a 8f 3c a8 17 8b bd bc b8 60 be
       0.22176298 0.017484052 -0.067916214 -0.2194547
000080 08 4a eb bc 76 2a 5c 3e 48 8e 2b bc 88 ea d9 3c
       -0.028721824 0.21500573 -0.010470934 0.026601091
000090 02 ee e0 3d 08 05 29 3e 08 b1 54 bb 24 b6 a8 3d
       0.109828964 0.16505826 -0.0032454152 0.082378656
0000a0 0e 27 17 bc 0b 85 6d 3d fd 88 20 3e cb d0 54 3e
       -0.00922562 0.057988208 0.15677257 0.20782773
0000b0 8b f4 bd 3d fa f6 29 be d0 64 eb 3d 42 10 6f bd
       0.092751585 -0.1659812 0.11493838 -0.058365114
0000c0 ef 44 0a 3e c7 53 0c bd 2f a2 eb 3d 67 3b 0a bd
       0.13502859 -0.034259584 0.115055434 -0.033748057
0000d0 a3 db ad 3d 05 22 56 be 2a c4 61 be c7 8b dc 3d
       0.08489158 -0.20911415 -0.22047487 0.10768848
0000e0 fb 81 46 3e 30 91 7c bd 94 aa 65 3e ce 3c 17 3e
       0.19385521 -0.0616619 0.22428352 0.14769289
0000f0 ee c0 44 3e 37 6a 15 3e 7c 26 16 3e 88 b5 01 be
       0.19214222 0.14591299 0.14663118 -0.12666905
000100 fb c7 dc 3d 91 f7 86 bd 14 b0 3e bd 10 c3 57 be
       0.10780331 -0.06590188 -0.04655464 -0.21070504
000110 e7 6e 42 bd 48 2f 19 bc 70 4b 22 3e ac b4 0f 3e
       -0.047469046 -0.009349652 0.1584909 0.14033765
000120 b4 b8 25 be d8 a2 57 3e 6e 3e 5f be b7 70 e6 bc
       -0.1618374 0.21058214 -0.21801159 -0.028129919
000130 c0 40 cb 3d c7 84 47 be f7 09 20 3d b2 9b 57 3e
       0.099244595 -0.19484244 0.039072003 0.21055487
000140 41 1e 56 3e 5e 90 e4 3d b6 f9 02 3e b5 79 15 bd
       0.20909978 0.11160348 0.1279057 -0.036493022
000150 9e 58 62 3e 4f 18 3b 3e 06 a6 84 3b 12 d3 e1 3c
       0.22104117 0.18270992 0.004048112 0.027566466
000160 ba b9 62 bd b6 00 0c be b3 a8 a9 3d b3 dc 45 3e
       -0.055352904 -0.13672146 0.0828413 0.19322471
000170 e5 05 45 3d 32 42 d1 3d 73 cd f0 3d 8e 42 18 be
       0.048101325 0.10217704 0.11757936 -0.14869139
000180 07 0e 4f be d7 cc f0 3d d5 5c 18 be ed 1c 31 be
       -0.20220195 0.1175782 -0.14879163 -0.1729619
000190 a4 db 48 3b 5c 74 cd 3d 4e f3 90 bc ed 0b 2b be
       0.0030648494 0.100319594 -0.017694142 -0.16703768
0001a0 05 b6 9e bd 95 b3 cc 3d 40 ac 43 be 23 be 41 be
       -0.07749561 0.0999519 -0.19108677 -0.18920188
0001b0 f3 8e 5e be aa f4 23 bd f9 55 2a 3e ba 16 08 3e
       -0.21734218 -0.04002825 0.16634358 0.1328992
0001c0 e1 75 ec bc 4d 8c 5d 3d ee 6e 92 3d ee bd 51 be
       -0.028864803 0.05408888 0.071500644 -0.20482609
0001d0 a3 13 26 3e 55 62 5f 3e d7 bf cf bd 17 77 e4 ba
       0.16218428 0.21814854 -0.101440124 -0.0017430511
0001e0 85 d5 42 bd 87 1a 11 3e db 86 ce bc 2b 19 4f be
       -0.04756691 0.14170276 -0.025210788 -0.20224445
0001f0 42 14 e7 bd 3d 4c 57 3e 29 90 8f 3d 82 fa 0e 3e
       -0.11283161 0.21025176 0.07009918 0.13962749
000200 a0 fe 0b 3d 49 e8 fd 3d 8e 80 85 bb 9e 52 58 be
       0.034178376 0.123978205 -0.004074163 -0.21125266
000210 ad e8 a0 3c c2 49 ef 3b 58 43 a2 3d a5 96 6b bd
       0.019642198 0.007302494 0.07923001 -0.057516713
000220 f2 d1 29 3e db 16 ee 3d 47 86 5f 3d d1 df 0c bd
       0.16583994 0.11625453 0.054571416 -0.034393135
000230 83 5f 3f 3e 0f 1b 61 be 22 7c 15 be 37 ae 7b bd
       0.18688779 -0.21982978 -0.14598134 -0.06144544
000240 ca 01 bb bd 0e 38 32 3e 19 8c 2e be 17 1d fd 3d
       -0.091312006 0.17404196 -0.1704563 0.12359064
000250 0f cf c5 3a 86 40 5f be 5f 7b 82 bd 7f 53 1c 3e
       0.0015091615 -0.21801957 -0.063711874 0.15266226
000260 fb 29 12 be 41 e0 05 be 0e a0 d5 3d cb 49 ca 3b
       -0.14273827 -0.13073827 0.10430919 0.0061733476
000270 39 58 23 be 71 03 e7 3d 65 64 3b 3e 45 37 03 be
       -0.15951623 0.11279953 0.18300016 -0.12814052
000280 3c e3 43 3e 3f 7c 43 be c4 ec 13 3e 59 9d e0 3b
       0.19129652 -0.19090365 0.14445788 0.006854695
000290 6e 06 62 bd 1b b6 01 3e cb fa 9c bd 97 d0 2d be
       -0.055181913 0.12667124 -0.076650225 -0.16974102
0002a0 06 d9 33 3e 7c cd 39 be 07 12 d9 bd 72 1f 08 be
       0.17563257 -0.18144792 -0.105991416 -0.13293245
0002b0 ba 99 17 3e fe 01 dd 3d 5b d1 07 3e 7a ec 13 3e
       0.14804736 0.107913956 0.13263457 0.14445677
0002c0 ea df 9c 3d 81 58 3f 3e d5 a6 47 bd da 10 02 3e
       0.07659896 0.18686105 -0.048743088 0.12701741
0002d0 f2 f0 94 bd c1 c7 42 bd 99 c3 4d 3e d7 e0 1c be
       -0.07272519 -0.04755378 0.20094146 -0.15320145
0002e0 21 76 60 3d b0 9f 95 bd 24 a4 38 be 79 7a 0e bd
       0.054800157 -0.073058486 -0.18031365 -0.034784768
0002f0 2c 56 09 3d c0 9a c9 bd b6 d1 50 3c 61 9d 13 bb
       0.033529446 -0.09843969 0.0127453115 -0.0022524225
000300 8b aa 60 3e ee 65 07 be 09 36 3c 3e c2 8c 54 be
       0.21940057 -0.13222477 0.18379988 -0.2075682
000310 f6 72 64 ba 2c 39 34 3e 15 36 a4 bd 67 03 88 3d
       -0.000871464 0.17599934 -0.08018128 0.06641274
000320 4d 0e 65 3e 94 78 d6 bd 92 e7 06 3e 52 b5 48 3e
       0.22368737 -0.10472217 0.13174275 0.19600418
000330 06 ce 27 3d e1 a7 19 3d 61 a6 35 be 2f 4f b5 bc
       0.040967964 0.037513617 -0.1773925 -0.022132484
000340 c1 4e 34 be 23 ea 23 3e 35 df 39 be aa 21 4c be
       -0.17608167 0.16007285 -0.18151553 -0.19934717
000350 88 e9 4f be a6 c2 4b be 6c 9e 0c be a5 f1 5e 3e
       -0.20303929 -0.19898471 -0.13732308 0.21771868
000360 b4 be 18 be fd 20 7e 3d 53 f6 26 3e ed c9 22 3e
       -0.14916497 0.06204318 0.16304903 0.15897341
000370 b2 57 4c be 55 05 a5 bd 5f eb 3c 3e c9 21 f5 bb
       -0.19955328 -0.08057658 0.18449162 -0.007480834
000380 87 f3 3f 3e 2b 92 05 be 27 23 43 3e 1e 2c 16 3e
       0.18745242 -0.1304404 0.19056378 0.14665267
000390 5b a1 91 3d f4 06 93 3c b2 03 fc 3d 7d 93 9a 3d
       0.07110854 0.017947651 0.12305392 0.075476624
0003a0 cd e7 b0 3d 5b 49 1c 3e 32 17 e8 3d 22 1c 1a 3e
       0.086379625 0.15262358 0.11332549 0.15049794
0003b0 0a a0 52 bc e4 88 17 be 41 fd 1c be d4 ef 09 be
       -0.012855539 -0.14798313 -0.15330984 -0.13470393
0003c0 70 7e ae bd e2 b1 df bb 0f 65 29 bd 85 99 c7 bc
       -0.0852021 -0.006826625 -0.041356143 -0.024365196
0003d0 df 36 10 bd 00 33 3b be e7 44 c1 bd 0a 51 30 be
       -0.03520858 -0.18281174 -0.0943697 -0.17218414
0003e0 3e 83 ba bd 73 65 8f bc 5d 38 1b be bb 94 cf 3c
       -0.09107064 -0.01750443 -0.1515822 0.025339475
0003f0 85 56 8d bd 32 21 02 3e d4 46 e2 bd 12 1a e2 bd
       -0.06901268 0.12707976 -0.11048666 -0.11040129

bias f4 [320]
000000 71 d4 50 3e c8 0c 1f bd f8 ab 8e bd 78 c3 1c 3d
       0.2039354 -0.03883055 -0.06966394 0.03827235
000010 42 21 61 3e d8 4b 6d 3a d0 78 8f bd 0e 9f a9 bd
       0.21985343 0.0009052134 -0.07005465 -0.082822904
000020 d8 99 38 be e3 45 61 bd 9b 6d 86 3d 37 4d b2 bc
       -0.18027437 -0.05499829 0.06563874 -0.021765335
000030 e5 1c 19 be 63 0c 30 be f2 18 08 be d7 88 05 be
       -0.14952429 -0.17192225 -0.13290766 -0.13040482
000040 37 f9 5f be aa 21 b5 bd 58 d0 41 bd e4 7a a1 bd
       -0.21872412 -0.088443115 -0.047317833 -0.07884768
000050 3b 65 1a be bd c0 4a 3d 96 d7 77 3d 22 0d f5 3d
       -0.15077679 0.049500216 0.060508333 0.119653955
000060 f8 58 3d be 95 90 1b be 42 51 62 3e 3d 68 b4 bd
       -0.1849097 -0.15191872 0.2210131 -0.088089444
000070 78 03 83 3d c4 c3 5a be 1e 62 1a bc 84 6a ac bd
       0.06397146 -0.21363741 -0.009422807 -0.08418754
000080 c3 3f 54 bc 5a 78 13 3d 6e 32 83 bd 37 30 ff bd
       -0.012954655 0.036003448 -0.06406103 -0.12460368
000090 64 10 2e be 04 78 52 be eb 3a 31 3e 15 14 7a 3d
       -0.1699844 -0.20553595 0.17307632 0.061054308
0000a0 25 16 55 be 18 1e eb 3b ab ca 2b be 42 12 a1 3d
       -0.20809229 0.0071752183 -0.1677653 0.078648105
0000b0 d4 4f 69 bd 03 02 17 be 74 be 4e 3e 4f 4c 0a 3e
       -0.056960896 -0.14746861 0.2018984 0.13505672
0000c0 bd 31 39 3c 2f 2f 06 3d f0 9e ad bb e6 3f 55 3d
       0.011303362 0.03275984 -0.005298488 0.05206289
0000d0 9e f5 cf 3d c7 45 1f 3e de 44 56 3e 35 64 c2 bb
       0.1015427 0.15553962 0.20924708 -0.0059323558
0000e0 1e 1a 17 3e 8d 3e 41 3e 3b af 09 be 3b f1 22 bd
       0.14756057 0.18871517 -0.13445751 -0.039780837
0000f0 52 1d a9 3d d1 12 29 be be 97 54 be e4 b3 1a be
       0.082575455 -0.16511084 -0.2076101 -0.15107685
000100 30 c5 2d be 37 1a 98 3d cc 8b 5d be df 9c e4 bc
       -0.16969752 0.07426875 -0.2163536 -0.027906833
000110 e2 27 e9 3d ea a0 1f be 8d 71 20 3e 95 42 c2 3d
       0.1138456 -0.15588728 0.15668316 0.09485356
000120 58 b0 55 be 6c 78 15 be 7e 57 95 bd 29 f4 2b be
       -0.20868051 -0.14596719 -0.072920784 -0.16792358
000130 6b c1 16 bb 53 5d dc bc ac 0d 56 bd 4c cd 4b 3e
       -0.002300347 -0.02689997 -0.052259132 0.19902533
000140 2b 24 22 3e 3e 23 0d be 8b 33 c0 bc 74 53 35 3e
       0.1583411 -0.13782975 -0.023462078 0.17707616
000150 90 03 95 3d 0d ea 32 3d d8 34 59 be 9c 40 86 3d
       0.0727607 0.04368024 -0.21211565 0.06555292
000160 d1 d4 b9 bd f2 18 3b 3e 33 68 f1 bd 0f 56 64 3e
       -0.09073795 0.18271235 -0.117874525 0.22298454
000170 61 a8 90 3d bc 39 17 3e 83 90 9b bd 6b ac 5a 3e
       0.07063366 0.14768118 -0.07595923 0.21354835
000180 bd f6 00 3e ca e8 55 3d e6 52 46 3e 7c 71 44 3c
       0.12594123 0.052223958 0.1936756 0.011989947
000190 b1 0e 1b be 00 a9 8e 3d ea c8 6d bc ba 45 e7 bd
       -0.15142323 0.06965828 -0.014513234 -0.11292596
0001a0 58 84 29 3e 6e 02 40 be 21 03 a8 bc b4 5b 76 bd
       0.16554391 -0.18750927 -0.020509304 -0.06014605
0001b0 6d a2 3b be c2 f0 8f 3d 85 cd 2e 3d f0 61 72 bd
       -0.1832368 0.07028343 0.042676467 -0.05917543
0001c0 eb d8 a9 3d f4 44 2e 3c a6 8f 0c 3e 7d 94 29 3e
       0.08293327 0.010636557 0.13726673 0.1656055
0001d0 a9 26 12 be 0b c9 40 3d c0 d5 e7 3d 69 41 2b bd
       -0.1427256 0.04706673 0.113200665 -0.041810427
0001e0 6e 53 a9 3d c0 08 91 3d e7 c5 de bd bd aa b7 bc
       0.08267866 0.07081747 -0.108775906 -0.022420282
0001f0 89 94 14 3e 10 31 d4 3c 35 8f f7 bc 55 e2 2d 3e
       0.14509787 0.025902301 -0.030219654 0.1698087
000200 62 a6 55 3e 66 e8 06 3e da 82 47 3e 67 8e 18 3e
       0.20864251 0.1317459 0.1948351 0.14898072
000210 fb 45 5a 3e f7 7d 25 3e 48 56 4c be 48 63 88 bd
       0.21315758 0.16161333 -0.19954789 -0.066595614
000220 10 0f 54 3e 73 5c 50 3e 62 a6 4b be e3 08 ec 3d
       0.20708871 0.20347767 -0.19887689 0.115251325
000230 61 a4 8c 3d 20 bc 7b bd 9a 8f b7 3a c5 71 23 be
       0.0686729 -0.061458707 0.0014004589 -0.15961368
000240 68 f7 22 be b3 23 28 be b1 46 41 be 81 38 60 3e
       -0.1591469 -0.16419868 -0.18874623 0.21896555
000250 db 3c 27 3e 6a e9 55 3c 19 b4 ea bd 0a 8c 8a bd
       0.16331808 0.0130561385 -0.11460132 -0.067649916
000260 6b 82 a0 bd b7 d5 3b 3e 14 58 02 3e 1e 4c dd 3d
       -0.07837375 0.18343244 0.12728912 0.10805534
000270 cf 89 69 bd cc 3f 9c bd b9 9c 29 be 0e c2 06 be
       -0.05701619 -0.07629356 -0.16563691 -0.13159963
000280 68 11 6c 3d b4 ab 68 3d d9 44 10 be e6 b6 5a 3e
       0.057633787 0.056804374 -0.14088763 0.21358833
000290 4f 96 57 bd b3 b2 d8 3c a2 dc 55 3e 97 25 4d 3e
       -0.05263358 0.026452398 0.20884946 0.2003387
0002a0 28 5a 5a 3e d4 ca 9c bd cc c7 91 bc c3 3a d0 3d
       0.21323454 -0.07655874 -0.017795466 0.10167458
0002b0 eb 6c 3c be 43 14 50 bc 3a 42 07 3d 51 24 a7 3c
       -0.18400924 -0.012700143 0.033022143 0.02040306
0002c0 21 43 b7 bc 10 3c 0a be 71 f5 a8 bd 40 8d 53 be
       -0.022370877 -0.13499475 -0.08249939 -0.20659351
0002d0 79 50 0c 3e 38 39 d4 3d 6a d4 20 be 1c 14 33 bc
       0.13702573 0.10362476 -0.1570603 -0.010930087
0002e0 76 c9 28 bd 8f c0 3b be 24 ee ec 3b a7 49 28 3e
       -0.041207753 -0.18335174 0.007230537 0.16434346
0002f0 85 cc 34 3e 0f 83 54 bd 27 91 9a bc 80 9d 17 3e
       0.17656143 -0.0518828 -0.018868042 0.14806175
000300 bd 73 b1 bd 99 9a fc bd d6 10 a4 bb 97 16 51 be
       -0.086646535 -0.12334175 -0.00500689 -0.20418774
000310 18 b2 0c be c6 63 57 be 21 bb 99 3d 0e b6 a3 bd
       -0.13739812 -0.21034154 0.07506395 -0.079937086
000320 d6 b5 ad bd ed 38 d5 3d 4d e3 1e 3e 40 6c 95 3c
       -0.08481948 0.10411248 0.15516396 0.018240094
000330 a6 cd f4 bd 74 fe 39 3e f2 49 48 3e d7 54 58 3e
       -0.11953287 0.18163472 0.19559458 0.21126114
000340 10 c3 b0 bd 01 aa 70 bd d7 cb 16 be df ca 81 3d
       -0.08630955 -0.05875588 -0.14726196 0.06337523
000350 6d da 31 3e 93 5e a1 bd ee 90 b6 3d a1 fc 6f 3d
       0.17368479 -0.07879367 0.08914362 0.058590535
000360 5a 2b 3e 3e 37 dc 16 bc 02 2d 5e 3d 67 59 60 3e
       0.18571225 -0.009207777 0.05424214 0.21909104
000370 a0 8f ab bd 7c 48 5f 3e 84 15 04 be be a3 1e be
       -0.08377004 0.21804994 -0.12898833 -0.1549215
000380 8c 13 4d 3e 8c 7e c8 bd 8a cd d2 bc 1d 6a f8 bd
       0.20026988 -0.09789762 -0.025732774 -0.121296145
000390 1e d5 a2 3d 5f ed 35 3d 9d 7c 11 bb ab c5 79 bd
       0.07950805 0.044415828 -0.002219952 -0.060979526
0003a0 bb c6 cb 3d 10 f4 8b 3d 01 45 44 3e 98 5a 12 3e
       0.09950014 0.068336606 0.19166948 0.14292371
0003b0 b3 f2 1f 3e 77 ee 1c be 49 3d 53 be d0 24 62 be
       0.15619926 -0.15325342 -0.20628847 -0.22084355
0003c0 3c 38 3d be 1c 80 14 3e d0 e1 49 bd 76 dd 60 bc
       -0.18478483 0.14501995 -0.049287617 -0.013724675
0003d0 5d 9d 33 be 6e 5e 87 bd 1f db 10 3d d0 ba 23 3e
       -0.17540498 -0.06609808 0.03536522 0.15989232
0003e0 75 b2 2b bd c7 5c f0 bd 11 0c 34 be 65 5d 2f be
       -0.041918237 -0.11736446 -0.17582728 -0.17125471
0003f0 26 f4 98 bd 80 07 e4 bd ae 34 16 3e af 53 93 bd
       -0.074684426 -0.11134243 0.14668533 -0.07193696

weight_ih_l0 f4 [256, 64]
000000 f5 e4 e3 3d 39 80 ea bd 77 61 9d 3d 08 03 80 3c
       0.111276545 -0.11450238 0.076846056 0.015626445
000010 da 90 47 3c 3e 27 31 3c 74 e8 90 bd 4e 8b c6 3d
       0.012180531 0.010812579 -0.07075587 0.09694539
000020 2e 41 b7 3d a5 1a c2 bc 6b 75 1d bc 40 09 42 3d
       0.08947979 -0.023694346 -0.009610514 0.047372103
000030 cb 8f f7 bb 1b c3 2c bb 6f 32 8f bd 36 b8 97 3d
       -0.0075549833 -0.002636141 -0.06992041 0.07408182
000040 0e 1a 15 bc 14 be 5c bc 6a 04 90 bd 66 43 de bd
       -0.00910045 -0.0134730525 -0.07032092 -0.10852699
000050 d3 bf fe 3d fe 0c e4 bd e0 17 6d bd 6d 66 05 bd
       0.12438931 -0.111352906 -0.057884097 -0.032568384
000060 04 66 58 bd 60 4f 9b 3d 44 08 a7 3d be 59 d0 3d
       -0.052831665 0.07583499 0.081558734 0.10173367
000070 e0 99 50 bd 25 d0 8f bd 24 c3 91 3d 97 cc 86 bd
       -0.050927997 -0.07022122 0.07117298 -0.06581991
000080 c5 82 71 3d 93 b3 d5 bd 8c 15 58 bc fd 06 92 3d
       0.058962602 -0.10434642 -0.013188731 0.07130239
000090 5b 36 8f 3d c5 0d 39 3c 9e f2 df bd 7e cd 81 3d
       0.06992789 0.011294787 -0.109349474 0.06338023
0000a0 a6 cd a9 3d 1c 6d f2 bb 9d 0c 84 bc ec 54 5c bd
       0.082911775 -0.0073982608 -0.016119296 -0.053791925
0000b0 b6 21 ea 3d 14 81 71 bd f3 b6 fc 3d 6d 12 80 3d
       0.11432211 -0.05896099 0.12339582 0.062535144
0000c0 4a fa aa 3d 6c 15 f8 bd 5a e0 a0 b9 e7 54 ca 3d
       0.0834852 -0.12113461 -0.00030684733 0.09879475
0000d0 17 80 0a 3e 2c 22 7b 3d bc 9e 08 bd 3c 17 cf bd
       0.13525425 0.061311886 -0.033354506 -0.101118535
0000e0 e9 fd 26 bc 8e 0e 61 bd 1f cb 43 bd cb 82 17 3d
       -0.010192373 -0.05494552 -0.047801133 0.03698997
0000f0 f9 61 b2 3d a5 9b 88 3d df 3e 07 3d 16 5e a9 3d
       0.08710093 0.06670312 0.033018943 0.082698986
000100 97 5f 9e 3d 82 77 4a 3c 38 9c b2 bd bd a2 f2 bc
       0.07733076 0.012357594 -0.087212026 -0.029618615
000110 5c fb b5 3d 86 14 2e bd 11 92 54 3d 57 d5 b8 39
       0.088858336 -0.04250004 0.051897112 0.00035254165
000120 3a b0 d9 bd 23 15 28 3d 31 de a2 bd 41 4f c3 3d
       -0.10629316 0.041035783 -0.07952536 0.09536601
000130 8a 4a 45 3d 45 cb d3 3d 61 f4 ab bc d9 fc d7 bd
       0.04816679 0.10341505 -0.020990552 -0.10546274
000140 05 32 00 be 45 ef 9f 3d a8 26 85 3d 10 64 82 bd
       -0.12519081 0.07809309 0.06501514 -0.06366742
000150 69 e6 01 bd a8 d9 ca 3d 0a 1a d1 3d ce d6 ce 3d
       -0.031713877 0.09904796 0.10210045 0.100995645
000160 a1 d0 e5 bd e8 71 c0 3a 60 4b 0a 3d ca 29 53 bd
       -0.112214334 0.0014682384 0.03376329 -0.051553525
000170 9c a0 c0 3c 9e d9 9a bd 15 51 3c bd e4 ba de bd
       0.023514085 -0.075610384 -0.045975763 -0.1087549
000180 9a 7f bf bd 6f a1 03 3e 4f 63 c4 bc d6 b4 f5 3d
       -0.0935051 0.12854551 -0.023973135 0.11997382
000190 5b 9e d3 bd c6 4c a2 bd 68 c4 78 bb 3a f4 7a bc
       -0.10332938 -0.079247996 -0.0037958864 -0.015317017
0001a0 52 8d d6 bd fb a7 a8 bd 97 2b 8e 3b 44 df f9 bd
       -0.104761735 -0.08235165 0.0043386924 -0.12200788
0001b0 8a 32 d8 bc 1b 47 ab ba e4 92 f0 bc 07 f5 19 3d
       -0.026391286 -0.0013067456 -0.029366918 0.037587192
0001c0 04 7d 98 3d 0a c7 98 bd 9d 05 c2 3c 27 89 a6 3d
       0.0744572 -0.07459839 0.023684317 0.081316285
0001d0 15 db b0 3d 95 11 fe 3c 2e 40 5d bd 14 26 fa bd
       0.086355366 0.031014243 -0.054016285 -0.12214294
0001e0 3f 32 31 3d b3 2b aa 3d eb 65 8c bc 09 7c a1 3c
       0.04326081 0.08309116 -0.017138442 0.019712465
0001f0 9c b2 ab bd bc c1 b8 3c 9d 4f de bd f5 9b 40 bd
       -0.083836764 0.022553317 -0.10855029 -0.047023732
000200 24 7b d4 3d cd 12 de bd e5 4d a8 bd 08 92 c1 3c
       0.1037505 -0.1084343 -0.08217982 0.023629203
000210 01 38 28 bb fa bf 21 bc ec 45 d9 3d c8 37 df 3b
       -0.0025668147 -0.009872431 0.1060904 0.0068120696
000220 c5 cd 49 3d 9a 4a cb 3d b6 3b 8a bd ed 39 2b 3c
       0.049268503 0.099263385 -0.0674967 0.010450822
000230 b3 fd ad 3c 9c cf 97 bd 26 63 e3 3d b8 cf f4 bd
       0.021239137 -0.07412645 0.111028954 -0.11953682
000240 9f 63 b9 3d 1d 94 53 bd 89 17 47 3d 13 19 7d 3c
       0.09052204 -0.051654924 0.04860643 0.015447873
000250 94 b0 d2 bd 44 dc ac 3d 09 e8 33 bd 3c 3f b5 bd
       -0.10287586 0.0844045 -0.043922458 -0.088499516
000260 f5 4d 33 3d 4b 64 96 bd ca d0 c5 3d 8c b7 4c 3d
       0.043775517 -0.07343348 0.09658964 0.04997973
000270 dc 95 f3 3d fb 1c d2 bd 9d 1a c2 3d 6c 10 ba 3d
       0.11893818 -0.10259434 0.09477732 0.090851635
000280 46 03 ba 3d f2 a7 1e 3c 40 0e af bd ee f0 e0 bd
       0.090826556 0.009683596 -0.0854764 -0.10983454
000290 1f 19 28 bd b8 64 d1 bd 5e b6 03 bd 0d a7 f7 3d
       -0.041039582 -0.10224289 -0.03215634 0.12092409
0002a0 ab d5 82 3d 0b 9f 6e bd d0 e4 9e 3d da 7a 25 bd
       0.0638841 -0.058257144 0.07758486 -0.040400364
0002b0 c6 85 9b bd 99 e2 ac bd 28 8f 5e bd 13 b8 d9 bd
       -0.07593875 -0.084416576 -0.054335743 -0.106308125
0002c0 f0 18 d5 b9 35 f4 0d bd c3 c5 7b 3d df 7e e5 bd
       -0.00040645106 -0.034656722 0.061467897 -0.11205839
0002d0 94 5a 96 3d b6 cc f6 bd c3 20 8a 3d f4 9a a9 bd
       0.07341495 -0.12050764 0.0674453 -0.08281508
0002e0 11 a6 c4 3d b1 a8 38 3c b7 3f 99 bd 51 81 f8 bc
       0.09601987 0.011270688 -0.07482856 -0.0303351
0002f0 7a b7 0a bd 9d ae 8c 3d 7e ea 3b bd 75 b7 79 bc
       -0.033866383 0.06869242 -0.045877926 -0.0152414935
000300 4a 4a d3 3d d1 a1 f8 bd 40 58 c2 bd 57 3e 1a bd
       0.10316904 -0.12140239 -0.094894886 -0.03765711
000310 fa dc 72 3c a0 df f6 3c f6 76 53 3d 7b fc 02 bd
       0.014823193 0.03013593 0.051627122 -0.031979065
000320 13 6e 59 bd 47 b9 bf bd ac 98 d8 bd a2 1e d3 3d
       -0.05308349 -0.09361511 -0.10575995 0.10308577
000330 ac b5 90 bd 64 3c b3 bd dd c9 fc bd b3 7c 2b 3c
       -0.07065901 -0.08751753 -0.1234319 0.010466742
000340 4b 1f 8f bd 9e 32 d6 bd 4c 7b 26 3d b1 46 85 bc
       -0.069883905 -0.10458873 0.04064493 -0.01626906
000350 27 b2 aa bd e2 29 54 3d 9e d9 cb 3d 57 8a 35 3d
       -0.08334761 0.051797755 0.099536166 0.044321384
000360 46 a8 c8 3d f1 4d 16 3d 5d f6 90 bb 19 bc 89 3d
       0.097977206 0.036695424 -0.0044239 0.0672533
000370 58 1e 73 bd a3 0b 16 bd ef 14 5f 3d 3f b5 bf bd
       -0.05935511 -0.03663219 0.054463323 -0.09360742
000380 88 b9 df bd d4 12 b7 3d 3e 66 e0 bc b3 ee 0a 3d
       -0.10924059 0.08939138 -0.027392503 0.033919048
000390 10 00 d4 3d b7 d5 f5 bd 2a 97 26 3c 77 f8 3b bd
       0.103515744 -0.120036535 0.010167876 -0.04589125
0003a0 f8 cd 86 bd 1a 71 22 3c 62 99 de 3b 1c ec 2b 3d
       -0.06582254 0.009914661 0.006793187 0.04197322
0003b0 b7 7a aa 3d 72 91 59 bd db 53 bd 3d f8 fb 14 bd
       0.08324187 -0.053117223 0.0924451 -0.03637311
0003c0 de 5b ff bd 76 c7 89 bd 4a bb bd bc 36 da 22 3d
       -0.12468694 -0.06727497 -0.023160595 0.039758883
0003d0 9c 46 29 bd d2 3c 5d bc 8e 63 49 3d 2c 62 88 3c
       -0.041327104 -0.01350327 0.04916721 0.016648374
0003e0 98 13 95 bd 05 22 88 3d d3 88 ba bd d0 df 74 bd
       -0.07279128 0.06647114 -0.091081284 -0.059783757
0003f0 6a 03 8f bd b4 72 03 3d aa aa fd bd 7f 95 3a 3d
       -0.06983073 0.03209181 -0.12386067 0.045552727

weight_hh_l0 f4 [256, 64]
000000 38 13 96 bd 61 62 bb 3d 25 0b a4 bc e8 9f e7 bd
       -0.073278844 0.09149624 -0.020024845 -0.113097966
000010 a9 ef fb 3d 86 d3 46 bd ae 6a b6 3c b7 38 16 bd
       0.12301571 -0.04854157 0.022267666 -0.03667518
000020 9c 2e dd bd c0 07 da 3d ce a1 cc bd 10 54 e2 3d
       -0.10799906 0.106460094 -0.09991799 0.1105119
000030 40 92 d5 3d 7e e7 55 bd ce 6a f9 bc af 49 2e 3d
       0.104282856 -0.05222272 -0.030446436 0.04255074
000040 57 b7 2f 3d 3e 6e f7 3d 84 a8 ed 3c ee dc 78 bc
       0.042899456 0.12081574 0.029011019 -0.0151893925
000050 65 03 97 3c b6 a8 a0 3d 8b c2 eb bc b0 87 83 3d
       0.018434236 0.07844679 -0.028779289 0.06422365
000060 ab 78 b0 bd d5 92 b2 bd 05 ec 21 3d 99 f0 e5 bd
       -0.086167656 -0.08719412 0.039531726 -0.11227531
000070 8e c2 82 bd e8 33 2c bd a5 89 b7 bd 1c 1c 91 b9
       -0.063847646 -0.04204169 -0.089618005 -0.00027677498
000080 da a3 12 3d 32 7f e7 3d 67 1d 6f bd 61 65 28 bd
       0.035800792 0.113035575 -0.05837765 -0.041112307
000090 31 db 24 3d 83 37 90 3d 6c 2d db 3d f0 6a 0b bd
       0.0402481 0.07041838 0.10702023 -0.03403753
0000a0 3b f0 bd bd 67 ff 84 3d b1 31 0e bd f5 07 b4 3d
       -0.09274336 0.06494027 -0.03471536 0.0879058
0000b0 3a 6c e6 bc ad 01 7b bd 07 13 ec bb 1d 88 b7 3d
       -0.028127778 -0.061280895 -0.0072044167 0.089615084
0000c0 a1 b3 26 bd ac e4 9a 3b aa ce d4 bd 4d 04 cd bd
       -0.04069865 0.004726967 -0.103909805 -0.10010586
0000d0 a5 89 2b bd 32 dc 7c bd 81 4a 89 bd 5e fb a3 3d
       -0.041879315 -0.061733432 -0.067036636 0.08006929
0000e0 ed c6 31 3d 67 6f af 3d 54 b6 bd bd 17 c1 46 3d
       0.0434026 0.0856617 -0.09263292 0.04852399
0000f0 b1 3c ef 3d c3 53 4e 3d 56 d2 1c bc a4 60 ab bd
       0.11681498 0.05037285 -0.009571632 -0.08368042
000100 00 6f cb bb e3 f6 49 3d 06 37 dd 3d 2e 9a 89 3d
       -0.0062083006 0.049307715 0.108015105 0.067188606
000110 4d 83 70 bc 71 f3 d4 3d e7 3a c7 3c 8c a7 5e bd
       -0.014679742 0.10397995 0.024320079 -0.054359004
000120 50 0c ee 3d de ec e7 3d 0d a7 4a 3d 39 dd 6e bd
       0.11623442 0.11324476 0.04947572 -0.058316443
000130 02 ea a8 bb 49 d9 51 bd 0d 44 94 bd 6b a4 53 bd
       -0.005154849 -0.05123261 -0.07239542 -0.051670473
000140 8f 3d 92 bc d0 96 3a 3d 83 43 84 3d bc 4e ef 3d
       -0.017851619 0.045553982 0.06458189 0.11684939
000150 14 48 4a 3d 66 38 47 bc a9 95 e0 bd 2a 4e ce bd
       0.049385145 -0.0121594425 -0.109660454 -0.10073502
000160 17 b7 ac bd a9 0b 90 3d ec 36 61 3c 66 5a 97 3d
       -0.08433359 0.07033474 0.013746005 0.07390289
000170 59 16 4a 3d 7f 22 c9 3d b5 54 10 bc ce ff a8 3d
       0.04933772 0.09821033 -0.008809258 0.08251916
000180 d5 45 d6 bd 3a 4c c0 3c b3 09 f3 bd 38 e2 ce bc
       -0.10462538 0.023473848 -0.11867084 -0.025254354
000190 f5 a0 93 bd 5f 06 6b bd 6c 96 f1 bd 36 d3 63 3c
       -0.072084345 -0.057379123 -0.11796269 0.013905337
0001a0 4a 94 a0 bd 2a 6f b3 3d f9 87 61 bd 69 79 fb bd
       -0.07840784 0.08761437 -0.055061314 -0.122790165
0001b0 69 2f 7a bc fd 1f 7f bd 45 12 90 3d 31 e6 f0 3a
       -0.0152700925 -0.062286366 0.07034735 0.0018379149
0001c0 14 91 e5 bd 9f 8f 9d bd 25 fc 91 bd 43 96 b3 3d
       -0.11209312 -0.07693409 -0.07128171 0.087688945
0001d0 30 1a cd 3d 89 d2 fb bd 70 ad c4 bd 43 48 e7 bd
       0.100147605 -0.12296016 -0.09603393 -0.1129308
0001e0 52 d9 dc 3d 42 fe aa bc e6 ac ca 3c 74 cc c8 bc
       0.10783638 -0.020873193 0.024740648 -0.024511553
0001f0 ca 39 dc 3c 5b 31 88 3d 3b 2b 2a bc ac 13 7e 3d
       0.026883025 0.06650039 -0.0103862835 0.06203048
000200 b6 cb c2 3d ac 5e 9d 3d 47 77 7e 3d 05 ae f5 3d
       0.09511511 0.07684073 0.06212547 0.11996082
000210 f9 0a 65 3d b9 89 e4 bd dc 67 fd 3d 96 30 28 bd
       0.055918667 -0.11159081 0.12373325 -0.04106196
000220 a1 66 a5 3d f2 ee f3 3d d6 72 a5 3d 5b 3a e2 bc
       0.080762155 0.119108096 0.08078544 -0.027615717
000230 d1 47 de 3d e0 77 e2 3d 3e 0f eb 3c 16 45 b7 3c
       0.10853542 0.110580206 0.028693791 0.02237181
000240 dd fd e4 bd 71 aa ba bd 59 9c 84 bd a5 20 d6 3d
       -0.11181233 -0.0911454 -0.064751334 0.10455445
000250 f6 c6 b9 bd 57 5e 00 3d 0a 66 86 3c a1 12 3c bd
       -0.09071152 0.03133997 0.016406078 -0.045916203
000260 44 9b 85 bd 32 b5 7c bd b1 f4 fb 3d ea 02 91 3d
       -0.06523755 -0.06169624 0.123025306 0.07080634
000270 b5 c3 c3 3d 9a 3b 9c bd ec 3d 27 3d 2c 00 97 3d
       0.095588125 -0.076285556 0.040830538 0.0737308
000280 6b c1 20 3d 6d 03 79 bd 9a 72 8c 3c 54 f0 44 bd
       0.039246958 -0.060794283 0.01714449 -0.048080757
000290 51 a1 d9 3d 37 60 36 bc 9b 55 da bb c4 8e b3 3d
       0.10626472 -0.011131338 -0.006663037 0.08767465
0002a0 92 1f fe bd b9 10 b4 bc a3 bc 34 3c 74 5e 67 3d
       -0.12408365 -0.02198063 0.011031303 0.056486562
0002b0 da 40 e6 3c db 6a ab 3d 4e e3 fc 3d 2b 5a 14 3d
       0.028107096 0.083699904 0.123480424 0.036218803
0002c0 92 71 54 bd d7 e3 a1 bc e3 58 9a 3d 47 f6 91 bd
       -0.05186612 -0.019761963 0.07536485 -0.07127052
0002d0 7f 58 94 3d 23 44 89 bd 3f ba 7d bd 5c 22 5f bc
       0.07243442 -0.06702449 -0.061945196 -0.013619032
0002e0 19 e0 b6 bd 2d 58 4b bd 63 1a d9 bd d9 0f 1c 3b
       -0.08929462 -0.049644638 -0.10600736 0.0023813157
0002f0 a0 28 1a bd fc da 0b 3d 8d 35 80 bc a5 b7 96 bd
       -0.0376364 0.034144387 -0.015650535 -0.07359246
000300 87 2a d5 bd 6a 4d b1 3d 23 e5 72 3d 9d 09 2a bc
       -0.10408502 0.08657344 0.059300553 -0.010378269
000310 2d 94 f4 3d ef c7 11 3d 0f 29 92 3d 8f 7b da bd
       0.11942325 0.035591062 0.071367376 -0.10668098
000320 b9 0d 6e bd 1e f8 9c bd 23 05 7a bc 73 18 69 3d
       -0.058118556 -0.07664512 -0.015260014 0.056908082
000330 8c 90 e5 bd 71 af a6 3d 6f 0c b9 3d 6b b2 08 bd
       -0.11209211 0.081389315 0.09035575 -0.033373278
000340 fc 69 95 bd a5 75 a7 bc 36 d8 d5 bd 7b 55 cb 3d
       -0.072956055 -0.02044184 -0.104416296 0.099284135
000350 a8 96 bd bd 9c ed 8c 3c 15 68 21 bd c4 aa 07 bd
       -0.09257251 0.017203145 -0.0394059 -0.03312184
000360 7c 05 fa ba ab 67 a2 3d 91 8e d9 bc 5e f1 e0 3b
       -0.0019075121 0.07929929 -0.026557239 0.0068647107
000370 ed 97 e4 bd 84 8e 37 3d c9 1e aa bd b7 6e 5f 3c
       -0.1116179 0.044813648 -0.08306653 0.013637236
000380 19 83 b4 3d 02 d0 87 bc 70 bc f5 3d 7a 9c 80 3c
       0.088140674 -0.016578678 0.11998832 0.015699614
000390 bc b9 db 3d 57 36 1f bc bc 52 b6 3d bc 8f c4 bd
       0.107287854 -0.0097175455 0.08902499 -0.09597728
0003a0 8f cb 3b 3d c2 f2 ff 3d 3e e6 bd bc b5 a0 09 3d
       0.045848425 0.12497474 -0.023181077 0.033600528
0003b0 4d aa 83 bd 3d f0 bb 3c 9c f8 9e bc bc 5a b7 bd
       -0.06428967 0.022941703 -0.019405656 -0.08952853
0003c0 37 4f 24 bd 24 1e c5 bd e9 f1 b0 3d f1 e0 bd bd
       -0.040114608 -0.096248895 0.08639891 -0.0927142
0003d0 4a 2c 79 bd af 6c 92 bd 59 77 c4 bd 9e 87 eb 3d
       -0.060833253 -0.07149636 -0.09593076 0.11500476
0003e0 cf 78 d1 bc 11 99 0a 3d d3 37 e8 3d 4a 18 f4 3d
       -0.025570301 0.03383738 0.113387726 0.11918695
0003f0 2c b3 79 3d ac 34 ff 3c c2 f1 e0 bd 76 d3 4b 3d
       0.060961887 0.031153046 -0.10983612 0.04976221

bias_ih_l0 f4 [256]
000000 5a cd 2c 3d cd 37 81 3d 9b b1 d2 3c e6 0d 9e bd
       0.042188026 0.06309471 0.025719455 -0.07717495
000010 11 ec ae bd c7 09 01 3e e4 24 03 bd a9 7a 5a bd
       -0.0854112 0.12601386 -0.032017604 -0.053339634
000020 61 6c 53 3d aa 9b ba 3d 11 08 68 3d 88 3d fe 3d
       0.05161703 0.09111722 0.056648318 0.1241408
000030 5a b1 47 bd 5b e5 dc bd 95 43 83 3d a2 68 b6 3c
       -0.04875312 -0.107859336 0.064093746 0.02226669
000040 b2 1a c9 3d a2 d7 58 bd 1f 2d a2 bb e5 9a 7c 3c
       0.09819545 -0.05294002 -0.0049492265 0.015417789
000050 6d 39 25 3c 84 49 e3 bd c0 ce 9f 3d 5d 7e d5 3d
       0.010084492 -0.11098006 0.07803106 0.104244925
000060 b4 db 10 3c 25 5f 91 bb b4 f1 56 3d cb 47 0e bd
       0.008841444 -0.004436391 0.0524766 -0.034736436
000070 f4 97 5c 3d 4e 76 db bd 12 a1 1e 3d d4 ac 18 3d
       0.05385585 -0.10715924 0.038727827 0.037274197
000080 55 58 58 3c a4 5d 90 3d b6 e9 7a 3d fd fe d9 3d
       0.013204654 0.070491105 0.06125804 0.10644338
000090 f7 3b ec 3d 65 01 96 bd ff b8 93 bd 43 41 8e 3d
       0.11534875 -0.07324485 -0.072130196 0.069460414
0000a0 c5 1d ff 3d dd ae c8 3d 48 ae 93 bd 68 d9 d8 bd
       0.1245685 0.097989775 -0.07210976 -0.10588342
0000b0 98 9f f9 bd 64 ef db bc 08 01 c2 bd 4a e4 1c bd
       -0.12188643 -0.026847549 -0.09472853 -0.03830365
0000c0 38 f3 d9 bd fa ec 40 bd f3 4f 60 3d 8d ee d6 bd
       -0.106420934 -0.047101 0.054763746 -0.10494719
0000d0 92 ec 8d bd 1f b1 8e 3c 98 a3 5f bd 1c 87 d5 bd
       -0.06929888 0.017418442 -0.054599375 -0.10426161
0000e0 3c 29 09 3d a6 fe 00 be 5e 98 20 bd f0 df 1c 3d
       0.03348659 -0.1259714 -0.03920781 0.0382995
0000f0 34 84 f8 bc 8b c1 bc bd 2f 43 1e bc cc a1 c4 bd
       -0.030336477 -0.09216603 -0.0096595725 -0.09601173
000100 f5 c8 1f 3b ae d7 a6 3b 93 2e 7d bd 1b fe ee bc
       0.0024381254 0.005091629 -0.061811995 -0.029173901
000110 1e 60 9f bd 6e 65 eb bc b5 02 c8 3d 38 eb c2 bc
       -0.07782005 -0.028734889 0.09766141 -0.023793802
000120 7d 5b ac bd d3 bb ee bd 80 c7 89 bc 15 f9 b2 bd
       -0.084158875 -0.116569184 -0.016818762 -0.08738915
000130 12 d7 6a 3d 32 d8 b7 bd 1c 2a ab bc 83 01 a9 bc
       0.057334013 -0.08976783 -0.020894103 -0.020630604
000140 ee f1 e0 bd 6e 43 c5 3d 42 c2 d1 3d be 03 65 bc
       -0.109836444 0.09632002 0.1024213 -0.013977943
000150 a0 85 85 3c 73 91 82 bd c4 3d a2 bd a9 3d 6f bc
       0.016299069 -0.063753985 -0.07921937 -0.014602103
000160 61 6f dd bc ac 23 fa bd c7 61 d3 3d 4d 22 5f 3d
       -0.027030649 -0.12213835 0.10321384 0.05447607
000170 f7 36 68 bc aa b9 66 bd 73 5b 96 bd b5 9d 8d bd
       -0.014173261 -0.056329407 -0.07341661 -0.06914846
000180 80 ae 3a 3d f7 56 f1 bd f8 ee 2a bd 8f b0 ad 3d
       0.045576572 -0.11784165 -0.041731805 0.084809415
000190 e4 86 1c 3d 6e aa 65 3c f2 43 71 bd 3a 3f d8 3d
       0.03821458 0.014017684 -0.05890269 0.105589345
0001a0 ec c5 84 3d cb 94 68 3d 27 7f b0 bd 11 a0 c2 bd
       0.06483063 0.056782525 -0.086180024 -0.095031865
0001b0 ed cc 1c 3d 95 6c e0 3c 21 ff 4a 3d 16 2a 62 3d
       0.03828137 0.027395526 0.049559716 0.055215918
0001c0 63 56 58 3c 5a 46 6d bd 7c 56 cb bd 28 07 4a 3c
       0.01320419 -0.05792842 -0.09928605 0.012330808
0001d0 3e 66 97 3d 1c d7 a4 bd a8 5f c0 3d 68 27 dd bb
       0.07392548 -0.08048841 0.09393245 -0.0067490824
0001e0 38 c7 56 bc 92 00 9a 3d bb e5 d2 bd 25 14 52 bd
       -0.013109021 0.0751964 -0.10297724 -0.051288743
0001f0 e7 91 94 bd aa 25 a6 3d b0 2e 30 3d 7b 75 e4 3d
       -0.07254391 0.081126526 0.043013275 0.1115522
000200 63 a0 29 bd b7 a2 cf 3d 36 e3 28 3d 5c 66 e5 3d
       -0.041412722 0.10138457 0.04123231 0.11201164
000210 c0 55 ef 3d d8 c2 f1 bc e5 3e 1e bd 7a c5 72 3d
       0.116862774 -0.029511854 -0.0386342 0.05927036
000220 a4 f4 b5 bc 77 ab 6a bc be 62 c7 3d 9e 57 08 be
       -0.02221138 -0.014323107 0.097356305 -0.13314673
000230 1d 7c 77 3d 3d c4 4b bd d8 e7 9f bd e4 4b 1c bd
       0.060421098 -0.049747694 -0.078078926 -0.038158312
000240 e3 b7 79 bd a9 21 61 3d 50 11 aa bd 94 4e e8 3c
       -0.060966384 0.05496374 -0.08304083 0.028357781
000250 cb d2 79 3d 73 51 e9 bc b8 a8 c7 3d 30 cd f3 bd
       0.060992043 -0.02848122 0.097489774 -0.11904371
000260 2f 31 dd 3d 40 fc 93 bd bd 06 bb bd c0 38 f4 bd
       0.10800397 -0.07225847 -0.091321446 -0.11924887
000270 f9 39 ff bc ef 1b b4 bd 25 55 fd 3d 52 7a d7 bd
       -0.031155573 -0.087943904 0.12369756 -0.105213776
000280 af 43 b1 bc 5a 15 ca bd bb 4d de 3d 6f c2 d4 3d
       -0.02163872 -0.09867354 0.1085467 0.10388648
000290 29 02 90 bd a1 3c d0 bd 96 35 4a 3d a5 d7 39 be
       -0.07031662 -0.10167814 0.04936751 -0.18148668
0002a0 df 99 d2 bd 2c 7a d3 3d 3b b5 8e bc 8b db d4 bc
       -0.10283255 0.10326037 -0.017420402 -0.025983592
0002b0 b1 8c 0c bd 08 a7 99 bc 78 f9 f9 bc 25 43 07 3c
       -0.03431386 -0.018756405 -0.030514464 0.008255755
0002c0 a0 ef ba bc 5b 04 f6 bd c8 eb 34 3d f0 2e c9 3c
       -0.02281934 -0.120125495 0.04417017 0.024558514
0002d0 e1 c8 64 3d 0e 13 da bd 87 85 b3 bd 9e 44 1b 3d
       0.055855636 -0.10648166 -0.08765703 0.037907235
0002e0 44 42 81 3d 8f 52 86 3c fa 2e bc bb 47 6d 3e 3d
       0.06311467 0.016396789 -0.0057429047 0.046490934
0002f0 31 e3 aa 3d aa 38 c6 bd ab 3b 07 3e d1 11 99 3d
       0.083441146 -0.096787766 0.13206355 0.07474101
000300 a9 2d 25 bd 64 97 a9 3d 17 2e e9 bd 99 fc 06 bd
       -0.040326748 0.082808286 -0.11385744 -0.03295574
000310 4c d2 05 bd 13 09 5a bd 14 a7 d4 3d 1b 4b 8e bc
       -0.032671258 -0.05323131 0.1038343 -0.017369797
000320 db 0f 9d 3b e9 30 2e 3d 89 98 db 3d e6 b6 ae bd
       0.00479315 0.042527113 0.10722453 -0.08530979
000330 12 86 f8 3b 98 fd e0 3d d8 63 e6 bc be 0d 68 bd
       0.007584342 0.10985869 -0.028123781 -0.05665373
000340 5f 2e 82 bc e2 fb eb bc 62 f8 f1 3c 39 86 ad bd
       -0.015891252 -0.02880663 0.029537383 -0.084728666
000350 da a8 fa bd 83 55 02 3e 7b 8e d5 bd b9 82 8e bd
       -0.12239237 0.12727933 -0.104275666 -0.06958527
000360 71 19 fc 3d 25 26 45 bd b6 bf 9e 3d b1 cd 45 3c
       0.1230954 -0.04813208 0.0775141 0.012072966
000370 cc a3 fb 3c 23 bb a6 bc ed a5 00 3b d8 d2 a1 3d
       0.030717753 -0.020352906 0.001963015 0.079015434
000380 9d b5 76 3c 4f 58 d2 bd 45 b1 b4 3d a0 c8 c9 3c
       0.015057948 -0.1027075 0.08822874 0.024631798
000390 f2 a2 d4 3c 2e 67 52 3d 80 49 ff bc db fd b3 3d
       0.025956605 0.05136793 -0.031162977 0.087886535
0003a0 4d de 1b bd 1f 91 c1 3d 68 98 9a 3d c2 8f c2 bc
       -0.0380538 0.09451508 0.075486004 -0.02375019
0003b0 bd ee d1 3d dc c2 8d bd 46 7d c0 bc 0a 65 73 bd
       0.10250614 -0.06921932 -0.023497235 -0.05942253
0003c0 de 94 56 3d 91 9c f7 3b de 98 94 3d 96 18 ab bd
       0.052388065 0.007556506 0.072557196 -0.08354299
0003d0 64 14 bf 3d ce c1 35 3d 93 f6 af bd 60 e8 de bd
       0.09330061 0.04437428 -0.08591952 -0.10884166
0003e0 59 8b 56 bd 22 ab 81 3d 79 40 81 bd b3 ba a1 3d
       -0.052378986 0.06331469 -0.06311125 0.07896938
0003f0 bb b9 b5 3d f4 dd f6 bd 2e 07 e2 bc b7 6a 8b bd
       0.08873316 -0.12054053 -0.027591314 -0.068074636

bias_hh_l0 f4 [256]
000000 92 c1 a0 bd 77 30 fa bd 44 8c ef bc 15 14 6d 3d
       -0.078494206 -0.12216275 -0.029241689 0.05788048
000010 e7 d2 fa bd 1a a3 f0 bc 86 87 ea bd 9d 76 83 3c
       -0.12247258 -0.029374648 -0.1145163 0.01604777
000020 87 d1 52 bd c0 71 c4 3d b8 e2 6b 3c a8 4c d3 bc
       -0.051469352 0.095920086 0.014397316 -0.025793388
000030 cb c8 aa 3d 07 e8 de 3d 7e ab c3 bc f2 18 60 3d
       0.083390795 0.108840995 -0.023885485 0.05471129
000040 5b f7 9c 3c 2f 50 a2 3d 11 ad 66 bd b0 8a 83 3d
       0.019160917 0.0792545 -0.056317393 0.06422937
000050 7e 70 1d bd 76 9e cd 3d 5f 97 8b bc 6f 36 98 bc
       -0.03843736 0.1003999 -0.017039953 -0.018580643
000060 ec fe e9 3d 38 d9 85 3d 83 5e c8 bd 0e 2a e0 3d
       0.114255756 0.06535572 -0.09783652 0.10945521
000070 c8 12 46 bd 06 5e 72 3c ba dc 72 3d d8 38 1b 3d
       -0.048357755 0.014792925 0.059292533 0.037896007
000080 42 96 c6 bd b6 56 7c 3c 59 ee 84 3d 21 5a e6 3d
       -0.09696628 0.015401533 0.06490774 0.112476595
000090 6b f7 01 bd 96 81 a2 bc ba 1c 59 3c 75 bc 14 3e
       -0.031730097 -0.019837182 0.013251478 0.14525016
0000a0 e3 a7 10 bd 90 10 34 3d 52 1a 85 3d 27 b1 be 3c
       -0.03531636 0.043961108 0.06499161 0.023277832
0000b0 ec 62 98 3d 4b 0f e5 bd 12 18 96 bd b1 1c 12 3c
       0.07440743 -0.111845575 -0.0732881 0.008917973
0000c0 b4 17 a9 3d 12 d3 33 3d 36 14 e4 3d 08 fb e1 bc
       0.08256474 0.043902464 0.111366674 -0.027585521
0000d0 9c 35 ba 3d 39 20 2f 3d cc ab 17 3d c5 86 68 3d
       0.090922564 0.04275534 0.037029073 0.05676915
0000e0 51 1e b8 bd 6c d1 54 3d 7f f4 0c 3d 58 2e 16 3d
       -0.089901574 0.051957533 0.034412857 0.03666529
0000f0 51 8c cc 3d 8e fb f4 3b b1 a7 eb bd 72 3e bd bd
       0.09987701 0.0074762767 -0.11506594 -0.09240426
000100 94 e9 b5 bd 72 49 76 bd 4f 6f 39 bd cc e1 f7 bd
       -0.08882442 -0.060128637 -0.045272168 -0.12103614
000110 fe 67 c4 bd 63 9a ca 3d b3 c0 fb bd 54 18 8c 3d
       -0.095901474 0.09892728 -0.12292614 0.06840578
000120 b3 2d 00 be ed 17 1e bd e6 85 82 3d 77 89 19 bd
       -0.12517433 -0.038597036 0.06373195 -0.037484612
000130 49 6b f0 bc 1b e4 35 bc 7e 4c 60 3c 72 d4 39 3d
       -0.029348033 -0.011101748 0.013690112 0.04536862
000140 ca 93 fd 3d 58 39 ae bd 24 76 88 3d a7 0a 77 bd
       0.12381704 -0.08507031 0.066631585 -0.060312893
000150 f8 ac 88 3c 29 f8 97 bd 18 1f ed bd 33 4a a3 bd
       0.01668404 -0.0742038 -0.11578196 -0.07973137
000160 83 11 c9 3d 1e 18 f0 3d 63 fb f5 bd ca ad bb bd
       0.09817793 0.1172335 -0.12010839 -0.09164007
000170 29 f0 c7 bd 4a d9 d5 3d ae fb 6b 3d 95 41 d2 3d
       -0.09762604 0.10441835 0.057613067 0.10266415
000180 b8 39 1d 3d 51 f2 c3 3d d0 06 5e 3d c3 2b 29 3d
       0.038385123 0.095677026 0.054205716 0.0413015
000190 bf 28 dd 3d 87 46 a6 3d a2 8e 6a 3d 52 4f 90 bd
       0.10798787 0.08118921 0.05726493 -0.07046379
0001a0 90 66 aa 3d 19 68 81 bd d5 a2 91 3d 93 1e f1 3c
       0.083203435 -0.06318683 0.07111136 0.029433524
0001b0 c7 bf 8a 3d 9b ce 3e 3d 97 cb 8e 3d aa db dc bc
       0.0677486 0.046583753 0.069724254 -0.026960213
0001c0 db 04 b0 bd ff ec e7 3d 8c ba e4 bd 70 61 a7 bd
       -0.08594676 0.113245 -0.111683935 -0.081728816
0001d0 c0 c2 c0 3d 24 91 d4 3d 64 e5 a1 bd fd b5 09 bd
       0.094121456 0.10379246 -0.07905081 -0.033620823
0001e0 95 0c cf 3d be c3 98 3d f1 a1 df bd 50 d8 fb bd
       0.10109822 0.0745921 -0.1091956 -0.12297118
0001f0 73 5f d7 3d ca 1d b3 bd 78 40 1e 3d c5 d8 9d 3d
       0.10516252 -0.08745916 0.0386357 0.07707361
000200 64 0b ab bd cb 6b 96 bd 67 e2 82 bd 82 f8 6b bd
       -0.08351782 -0.073447786 -0.06390839 -0.057610042
000210 b1 86 4c 3d d6 60 11 3e 6b 08 a6 bd 02 f4 ab bd
       0.04993314 0.14197096 -0.08107074 -0.0839615
000220 70 42 49 bd 63 35 e3 bd 22 e8 dc 3d d4 ac 6f bd
       -0.049135625 -0.11094167 0.10786463 -0.05851443
000230 c7 87 a2 bd a5 55 0a 3d 82 0c 9a bd f9 72 c5 bd
       -0.07936054 0.033773083 -0.07521917 -0.0964107
000240 e1 11 85 bb e7 de ce 3d 69 dd 6e 3d 8a b6 00 bb
       -0.004060969 0.10101109 0.058316622 -0.0019640052
000250 73 04 8d 3d 64 81 97 bd e2 4a 80 3d e6 b0 1d bc
       0.06885614 -0.07397726 0.06264283 -0.009624695
000260 f9 9b ad 3c 6b 56 d7 bc a4 e4 d0 3d a4 c9 a0 3d
       0.021192538 -0.026286324 0.1019986 0.0785096
000270 cb ba 0e 3d 99 4e c7 3d d6 db cc bb 22 f9 5d 3d
       0.03484611 0.09731788 -0.0062517924 0.05419267
000280 e0 ca df bd a1 a4 0c be a7 2b 93 3d a1 ba a0 3d
       -0.10927367 -0.13734676 0.071860604 0.07848097
000290 ee 79 3f 3d b1 55 4d bc 5b 5d 01 3e bb f2 0a be
       0.04674714 -0.012532637 0.12633269 -0.13569157
0002a0 61 db 31 3d 38 85 43 bd 19 f2 f6 bd 54 ff ad bd
       0.043422107 -0.04773447 -0.12057895 -0.084959656
0002b0 94 06 0f bd 38 df d3 3c 27 dd e6 bc ab fa e5 bd
       -0.034918383 0.025863275 -0.028181626 -0.11229452
0002c0 4b ef 20 bd c0 f0 08 3c ee 7d a7 bd 11 26 03 be
       -0.039290708 0.0083581805 -0.08178316 -0.1280749
0002d0 6c 24 d6 3d 0c 5a 72 bc 7b 20 a9 3d ae 13 e1 3c
       0.10456166 -0.014791977 0.08258148 0.027475204
0002e0 ec 13 2f 3d a4 07 da 3d e4 9e 0a 3e 9b 91 8b 3d
       0.04274361 0.106459886 0.13537174 0.068148814
0002f0 98 fc 6a 3d 30 35 14 bd 75 85 0c bd dd e3 9a bd
       0.0573698 -0.036183536 -0.034306962 -0.07562993
000300 d9 9c d4 bd 62 44 f5 3d 44 44 3a 3d 77 6e c7 bd
       -0.10381479 0.119759336 0.04547526 -0.09737866
000310 a4 ac 32 bd c0 56 a7 3d bc e2 e6 3d 25 b0 56 3d
       -0.043621674 0.08170843 0.11273715 0.05241408
000320 a5 2c e9 bc 7b 54 54 bd 3d 17 75 3d fe 64 83 bd
       -0.028463671 -0.05183838 0.059836615 -0.06415747
000330 bb 25 19 3d 8e 84 9b bd 80 a0 aa bd 83 1c c0 bd
       0.0373895 -0.07593642 -0.08331394 -0.09380438
000340 ee 7a ad bc c8 29 a0 3d e1 79 8e bd 9b 43 4f 3d
       -0.021176782 0.07820469 -0.0695684 0.050601583
000350 70 e5 93 3d 1c d8 d5 bc db 87 d5 bd 8e 41 18 bc
       0.07221496 -0.026104026 -0.10426303 -0.009292973
000360 ef 9e 85 3c 56 8e d7 3d 84 d4 55 3d cc 02 72 3d
       0.016311137 0.10525195 0.052204624 0.0590847
000370 21 2c 84 3d c5 c3 80 bd ab 46 61 3d a5 28 f1 bc
       0.064537294 -0.0628734 0.054999035 -0.029438326
000380 bc 03 23 bd ef b5 eb bd c5 38 8f bd 0d 08 d5 bb
       -0.039798483 -0.115093105 -0.0699325 -0.006501204
000390 2c c4 42 3c 8a f9 65 3d 21 e6 d9 bc 02 37 c4 3c
       0.011887591 0.056146182 -0.026598992 0.023952011
0003a0 2f 3d 80 bd 31 b3 b8 3d 1c 6a d7 3d ae 90 e7 bd
       -0.0626167 0.09018553 0.10518286 -0.11306892
0003b0 65 5b fe 3d b5 3c a4 bc ce c4 b6 bc ff 9a c2 3d
       0.12419776 -0.020048479 -0.02231064 0.095022194
0003c0 64 49 82 bd c2 62 1d 3d 44 80 df 3d 89 80 e1 3c
       -0.063616544 0.03842426 0.109131366 0.02752711
0003d0 80 db b6 bd ff a0 bb bd c5 a9 89 3d c6 f5 c7 bd
       -0.08928585 -0.09161567 0.06721834 -0.097636744
0003e0 4c 23 8b 3d c4 96 db bd 05 60 be bc 83 7b e2 3d
       0.06793842 -0.10722116 -0.023239145 0.11058714
0003f0 85 cf b4 3d 1d ba e9 3c e2 33 d7 3c c6 52 29 3c
       0.08828644 0.028531129 0.026269857 0.010334676

weight_ih_l1 f4 [256, 64]
000000 ea 49 47 3d 6d 56 c1 bb 3a 07 03 3d b6 11 8d 3d
       0.048654474 -0.0059001953 0.031989314 0.06888144
000010 91 3a 89 bd 37 17 aa bd ac ed 80 3d fa 26 89 3d
       -0.06700624 -0.08305209 0.06295332 0.06696887
000020 f5 2e 52 bc af 41 36 bc e1 09 f0 3d 6f 71 92 3d
       -0.012828578 -0.011124059 0.11720634 0.07150542
000030 72 db db bd 7a 50 35 bc d3 47 35 bd d2 f3 33 3c
       -0.10735215 -0.01106655 -0.04425795 0.010983424
000040 07 7a 99 bd 05 81 10 bc c1 8a ba 3b 09 e2 d5 bc
       -0.07493978 -0.008819823 0.0056928103 -0.026108759
000050 54 87 f4 bd 92 a1 87 bd 26 4d a4 3c 5f 2a bf 3d
       -0.11939874 -0.06622614 0.020056318 0.093342535
000060 39 ec 8f bc 9c d3 76 3d 24 6d cf bd cf d4 7f 3d
       -0.017568694 0.0602604 -0.10128239 0.06245881
000070 fe 28 48 3d 93 95 f9 3d ed b4 bf bd c7 d7 86 bd
       0.04886722 0.12186732 -0.09360681 -0.06584125
000080 94 c8 c8 bc db 83 ec 3c af 78 2d bd 48 06 bc ba
       -0.024509706 0.028871467 -0.04235142 -0.0014345134
000090 a0 73 85 bd 5d 1a 94 3d 74 5e fc 3d eb 7e ea 3d
       -0.06516194 0.07231591 0.12322703 0.11449989
0000a0 b4 89 c7 3d 80 dd 90 3d 9c 34 94 3c d4 8e d2 3d
       0.09743062 0.07073498 0.018091492 0.102811486
0000b0 19 fd bf 3d ac 67 9a 3d 80 68 8c bb ce 2b ae bd
       0.093744464 0.07539305 -0.0042849183 -0.08504449
0000c0 92 3f a7 bd af 8a fa bd 9f 79 d2 bd 81 cd fc bc
       -0.08166422 -0.12233483 -0.10277104 -0.03085971
0000d0 48 21 6f 3d 7c 2d 84 bc a9 0c 6d bc 26 77 b4 bd
       0.05838135 -0.01613497 -0.01446835 -0.08811788
0000e0 83 0c db bb 81 9d 35 bd f6 36 ae 3d a6 66 fc bd
       -0.006684841 -0.04433966 0.08506577 -0.12324266
0000f0 39 ba 7e bc 63 88 8a 3c a2 58 05 bd 4d 30 43 bd
       -0.015547329 0.016910737 -0.03255523 -0.047653485
000100 d5 72 9a bc cd e1 b4 3c 89 ac 91 bd 81 1a 27 3c
       -0.018853584 0.022080326 -0.071129866 0.01019919
000110 1d 00 ef 3d 6d ec 92 bd af 9a c5 3c 2f 11 01 bd
       0.116699435 -0.07174001 0.02412161 -0.03151053
000120 1a 3d 63 3d 51 df 5e bd 35 45 03 3d b9 9a 31 3d
       0.055478193 -0.05441219 0.032048423 0.043360446
000130 5a dc f6 bd fe 2a bc 3d f1 c5 62 bd da 80 d7 3c
       -0.120537475 0.091878876 -0.055364553 0.026306558
000140 ab cf ca 3d e1 21 e9 bd c0 bf 9e 3d 85 3f df bd
       0.09902891 -0.11383415 0.07751417 -0.10900787
000150 17 8e f7 bc 9c 4b 2a bc 24 e1 5e 3d f8 62 e7 bc
       -0.03021912 -0.010394003 0.05441393 -0.028245434
000160 f2 66 d6 bc 73 72 3a bd 65 ae a6 3d 76 f9 16 3d
       -0.026172135 -0.045519304 0.08138732 0.036859
000170 e5 ab d4 3d 7a 02 ae 3d b2 d1 4d bd 6a 5c b9 3d
       0.10384349 0.08496566 -0.05024881 0.0905083
000180 e7 f1 cb bd d0 28 c2 3d 09 fb b6 bc c5 37 41 bd
       -0.099582486 0.094804406 -0.0223365 -0.047172327
000190 7e 96 3b 3b 0e 5d b0 3d 54 3c 93 3b b0 3b 5a ba
       0.0028623636 0.08611499 0.0044932757 -0.0008324934
0001a0 d7 c0 46 bc b0 4b 7a 3d ba c4 f3 bd 5f 9c 8b bd
       -0.012130938 0.061107337 -0.11902757 -0.06816935
0001b0 95 8d dd bd 2c 95 bd bd 3b c8 5b 3d c6 1e bd bd
       -0.1081802 -0.09256968 0.05365775 -0.09234385
0001c0 6c 2d f3 3d 7a a7 74 bd 6e 6b 54 3d 8b 45 77 3d
       0.11873898 -0.05973003 0.051860265 0.060369056
0001d0 16 9f d7 bd 07 4e f2 bd 75 c5 9e bd 95 cb f0 3c
       -0.1052839 -0.11831289 -0.07752506 0.02939395
0001e0 79 81 8d bd 18 9f d2 bc 49 1c 9d bd 97 8b 99 bd
       -0.069094606 -0.025710627 -0.076714106 -0.07497328
0001f0 d6 8a 8a bd ff aa 73 3d 4a da 7d 3c 9a 9e 30 3d
       -0.06764762 0.059489246 0.015493939 0.043120004
000200 12 43 ff bc 68 c6 7e bd 08 94 c2 3d 67 57 d7 3d
       -0.031159911 -0.062200934 0.09500891 0.105147175
000210 fc 4f cf 3d f4 89 e4 3d 6e 2f c6 3c 18 1d 9c bd
       0.10122678 0.11159125 0.024192538 -0.07622737
000220 41 bd 5b bc 40 4e d0 3d 32 17 ee bd 7d d7 e1 bd
       -0.013411821 0.10171175 -0.11625518 -0.11027429
000230 a0 55 85 bd 20 b9 78 bc 12 86 98 bd 5f 17 c6 3d
       -0.06510472 -0.015180856 -0.07447447 0.096724264
000240 07 77 48 bc 5a ea 6d bd a8 f3 bb bd f2 c9 f7 bd
       -0.01223541 -0.058084823 -0.09177333 -0.12099065
000250 92 19 11 bd 24 87 9e 3d 68 46 10 3d 27 d1 8b 3d
       -0.035424776 0.0774062 0.035223395 0.06827002
000260 26 df c4 3b 55 be 8c bc 08 2b 4c 3d bc 90 bf bc
       0.0060080467 -0.017180601 0.049845725 -0.023384444
000270 d5 17 98 3c 59 6c e2 bd 54 f5 91 bd c3 ce 8a 3d
       0.018566051 -0.11055822 -0.07126871 0.06777718
000280 66 5a 40 3d a9 25 dd 3d b4 d3 4b bd 01 8b 93 3d
       0.04696121 0.10798199 -0.049762443 0.07204247
000290 d1 53 b5 bd 66 c5 62 3d 53 20 f4 3d 7b 17 ba 3d
       -0.08853877 0.055364035 0.11920228 0.0908651
0002a0 97 78 d2 bb 95 e9 df 3d b5 95 21 3d f7 41 63 bd
       -0.006423067 0.10933224 0.039449412 -0.05548283
0002b0 ed d5 85 3d 0a 38 26 3d 73 b8 a4 bd bd 49 f3 3d
       0.06534944 0.040580787 -0.080429934 0.11879299
0002c0 a0 0f 96 3d c3 ec b3 3d bf bc a8 39 92 a9 12 3d
       0.07327199 0.08785393 0.00032184084 0.035806246
0002d0 d5 2c bc 3d ac 05 e5 bc bf 17 bc 3d cf ff f6 bd
       0.091882385 -0.027956806 0.09184217 -0.1206051
0002e0 f5 3d a6 3d 81 8c be bd 73 b1 d4 3d 49 a4 1a bd
       0.08117286 -0.09304143 0.10385408 -0.03775433
0002f0 fa c0 1a bc 0e df a0 bd 78 86 6f bd b2 0c db 3d
       -0.009445423 -0.07855044 -0.05847785 0.10695781
000300 15 0a ff bd 8e 44 b1 bd 5f 80 fd 3c 30 53 82 ba
       -0.12453095 -0.08655654 0.030945001 -0.0009943005
000310 92 ef 94 bd ef ee 59 bd 09 5a 89 3d 9b 98 0c 3d
       -0.07272257 -0.05320638 0.06706626 0.034325223
000320 4e 9f c3 bc 3e 26 fd bd f3 28 e1 bb 04 01 fb bc
       -0.023879673 -0.1236081 -0.0068713366 -0.030640133
000330 82 c8 d3 bd 67 a1 5a 3d af a7 94 3c 49 93 9f bd
       -0.10340978 0.05337658 0.018146364 -0.07791764
000340 3c 11 82 bd f7 a9 f8 3d 14 a6 57 3d b9 8d 89 bd
       -0.063509434 0.12141793 0.05264862 -0.067164846
000350 00 1f f4 bd 2b 81 bc 3c 55 82 f3 bd fd 99 ed bc
       -0.11919975 0.02301081 -0.11890093 -0.029004091
000360 1b 23 ed 3d 49 eb 9d bd 99 d7 16 bd f8 f9 1b 3d
       0.115789615 -0.07710893 -0.036826704 0.038080186
000370 c2 bf 40 3a 09 5c 51 3d 68 38 15 3d 33 d0 d9 3d
       0.0007352793 0.051113162 0.036430746 0.10635414
000380 6b 36 b5 3d 28 98 c1 bd fd f2 2b bd 5e 5e ea bd
       0.0884827 -0.094528496 -0.04197978 -0.1144378
000390 d7 ac a1 3c 10 9c 44 bd 7e 34 ad bd cf d5 77 3d
       0.019735737 -0.048000395 -0.08457278 0.06050664
0003a0 81 f7 f6 bd 2b ab 9f 3d d8 41 1b bd 02 7f 75 bd
       -0.120589264 0.077963196 -0.03790459 -0.059935577
0003b0 b6 4e b3 bd b7 6e 95 bd 80 23 bd bc 80 a5 f8 3d
       -0.08755247 -0.07296508 -0.023088217 0.121409416
0003c0 6d 0d 97 bd 41 84 7d 3b 99 65 50 3d 0a f0 f5 3b
       -0.07375608 0.0038683566 0.05087814 0.0075054215
0003d0 c9 c9 88 bd 62 51 d6 bd e7 ab 35 bd 20 ac 6f 3c
       -0.066791125 -0.10464741 -0.044353392 0.01462844
0003e0 32 9b e4 3c 40 75 8c bc 53 d9 d1 bd 10 cf d5 3a
       0.027906034 -0.017145753 -0.102465294 0.001631232
0003f0 ad a7 f3 3d a7 64 a0 3d 41 98 5b bd 04 a8 a3 3b
       0.11897216 0.07831698 -0.053611998 0.0049943943
